model.pth (torch, 227399 bytes, 6 tensors)

0.weight f4 [256, 154]
000000 79 cc 7a bc da 74 5a bd 8a fc 42 3d b0 21 9c bb
       -0.015307539 -0.053334095 0.04760412 -0.004764758
000010 d0 53 c4 bb 97 53 62 bd 86 e0 34 bd 43 fb a6 bd
       -0.0059914365 -0.0552555 -0.044159435 -0.08153393
000020 26 2e 4b bc 9b 4a 57 bd ee 29 24 3c 88 57 83 3b
       -0.012401139 -0.052561384 0.010019762 0.0040082373
000030 3b 5a 6a bd 3a 81 a3 3c 70 b2 8c 3d 48 5b 62 bd
       -0.057214957 0.019959081 0.06869972 -0.055262834
000040 3b 3f 1e 3b 30 0b 2c bc 2c 11 eb bc 58 27 e5 3c
       0.0024146575 -0.010500714 -0.028694712 0.027972862
000050 0d b4 a2 3d 58 2e 8a 3c 29 0d 91 bd 86 bb d8 bd
       0.07944498 0.016867802 -0.07082588 -0.10582642
000060 de 86 a9 bc 4e 06 41 ba a5 1a 8c bd 3b 44 12 bd
       -0.020694192 -0.0007363305 -0.068410195 -0.0357096
000070 dd 16 e4 bd d9 60 9f 3d ad 5b 72 3d 2f 26 66 bd
       -0.11137173 0.07782144 0.05916946 -0.05618876
000080 7b 1f f5 be 8f d3 c4 be 34 59 aa 3f 8e 77 d9 3e
       -0.4787558 -0.38442656 1.3308473 0.42474025
000090 39 46 0a bd 76 4b 2e bd 99 7a 06 be 67 63 87 be
       -0.033758376 -0.042552434 -0.13132705 -0.26443025
0000a0 ab 70 7a bc 63 d5 9e 3c 8f ce 0c bf 3a 7d 97 bd
       -0.015285651 0.01938886 -0.55002683 -0.07396932
0000b0 10 34 d9 bc 6e 72 d1 be 3b 7d 78 be 13 fa a8 3e
       -0.026514083 -0.40907615 -0.24266522 0.3300329
0000c0 56 2e d3 bc 7a a2 1f 3d 70 af 57 3c 68 70 ec 3c
       -0.02577893 0.03897331 0.013164386 0.028862193
0000d0 8e 8e fb bc b3 0c 53 bd ee a6 74 bd b6 b2 45 bd
       -0.030707624 -0.051525783 -0.05972951 -0.048266135
0000e0 6d db c9 ba f6 3c cc bb 6b d9 03 bd 6b 7b 51 bd
       -0.0015400477 -0.006232853 -0.032189768 -0.05114309
0000f0 7f 10 cc bd cc 13 20 3d b3 3f 8f 3d ff 6c a6 3d
       -0.09964084 0.03908138 0.069945715 0.08126258
000100 f8 29 82 be bf 80 bc bc 58 65 1a 3f 33 8b e8 3e
       -0.25422645 -0.02301061 0.6031089 0.454187
000110 8c fd 13 3e e5 04 31 bf a7 17 16 bf 04 ea 1e bf
       0.14452189 -0.69148093 -0.5862984 -0.6207583
000120 b9 ed e5 bd 93 c9 23 bf b0 f5 aa 3e 9f 9a b0 be
       -0.112269826 -0.6397945 0.3339057 -0.34492967
000130 3f a2 08 3f 04 95 36 3f 79 d4 02 3e bb 68 d8 3e
       0.5337257 0.7132113 0.12776364 0.42267403
000140 97 4c 43 be 2e f6 75 be eb f5 7c be 79 2d 94 be
       -0.19072185 -0.24019691 -0.24703185 -0.28940943
000150 8b db 3c be 58 57 7f bf 23 fd 3b bf 1c 81 cf be
       -0.18443124 -0.9974265 -0.7343313 -0.4052819
000160 57 7a 89 bc 59 98 5f 3e d5 e1 89 3d b2 ff b5 be
       -0.016781969 0.2183546 0.06732527 -0.35546643
000170 16 de ce bd f2 04 c6 3e ec eb c6 3e 48 24 e2 bd
       -0.10100953 0.38675648 0.3885187 -0.11042076
000180 4f 56 01 be a5 e9 b3 be 03 65 12 be 07 93 a5 be
       -0.1263058 -0.35139194 -0.14296345 -0.32338735
000190 fe d4 38 be 2f 1b 80 bf 71 fc 34 bf eb 8a 09 bf
       -0.1805 -1.0008296 -0.70697695 -0.53727597
0001a0 31 d2 19 be c0 d2 c9 3d 89 31 ba 3d d5 e2 e4 be
       -0.15021588 0.098546505 0.09091479 -0.4470431
0001b0 a4 56 2b be a3 cd f9 3e f0 a3 88 3e 36 a6 0e bd
       -0.1673227 0.487897 0.26687574 -0.03482648
0001c0 16 63 7b 3d 1f 1f b4 3d fb 3a 70 be c1 19 34 be
       0.061373793 0.087949984 -0.2346 -0.1758795
0001d0 b5 d6 19 be 01 ba 31 be cc 1f b2 be 1a dc 3d be
       -0.1502331 -0.17356111 -0.34789884 -0.18540993
0001e0 30 d8 b2 be 2a f4 64 be 65 52 07 be 02 7c ee be
       -0.34930563 -0.22358766 -0.13215025 -0.46578985
0001f0 e3 dc 33 be f5 4f b1 be 91 7b 2e bd f4 92 8a be
       -0.1756473 -0.34631315 -0.04259831 -0.2706524
000200 f1 8f 2e 3d 66 f7 d0 3d d0 2d 82 be 2e be 2a be
       0.042617742 0.102034375 -0.25425577 -0.1667411
000210 80 7d 2f be 8e 36 89 be c8 4c 87 be 22 10 9a be
       -0.17137718 -0.26799434 -0.26425767 -0.30090433
000220 5d a5 b3 be 18 90 68 be b2 6e 16 be 6d 4a ea be
       -0.350871 -0.22711217 -0.14690664 -0.45759907
000230 8e 0a 18 be 3e 51 b8 be fa 5b 18 bb a3 4a 55 be
       -0.14847776 -0.35999483 -0.0023248182 -0.20829253
000240 b4 1a 1f be 86 17 29 bf 52 c0 c7 3e 3c 9e 0d 3f
       -0.1553753 -0.6605152 0.39013916 0.5531957
000250 da fa 95 3f 2a ee b2 3e 73 7c d9 be 4b f0 af bc
       1.1717179 0.3494733 -0.4247776 -0.021476885
000260 f8 21 a8 bc 62 3a 50 bd e9 4a 1b bd 28 06 32 3d
       -0.02052401 -0.05083693 -0.037913237 0.043462902
000270 bf 00 ad bd c9 8b ca bd 9f cf 7f bd b3 c6 8c bd
       -0.08447408 -0.09889943 -0.062453862 -0.06873836
000280 ab 61 49 be 7d 07 b6 be 72 c6 d4 be 57 7f e7 be
       -0.19666164 -0.35552588 -0.41557652 -0.4521434
000290 2c e6 6e be 14 e2 d7 be 8a 9a 00 bf f6 21 b1 3d
       -0.23329991 -0.4216467 -0.5023581 0.08649056
0002a0 7c d3 7c 3d 9c d4 86 bd 9c e3 e3 bd 30 31 bc 3c
       0.061725125 -0.06583521 -0.111273974 0.022972673
0002b0 47 8b c9 bd 70 c6 46 be 2c f6 0f be 50 a3 4b be
       -0.09841018 -0.19411635 -0.14058751 -0.19886518
0002c0 5a 08 27 be da 9c a7 be 94 0b e7 be 91 f7 e8 be
       -0.1631178 -0.32736856 -0.4512602 -0.45501378
0002d0 06 5a 83 be 0a 29 eb be ca 3d fd be 69 15 64 3d
       -0.2565462 -0.45929748 -0.49461204 0.05568448
0002e0 36 d0 b7 ba ca 53 17 bd 4d 87 b5 bf 7f b5 f5 3e
       -0.0014023844 -0.03694514 -1.4181916 0.47990033
0002f0 6f 85 df bf b2 69 88 bf d4 51 29 bf 6c 8c 68 bf
       -1.7462596 -1.0657256 -0.66140485 -0.90839267
000300 cc 51 03 c0 b6 ac 39 be 38 f0 44 bf f6 c5 16 bf
       -2.0518675 -0.1813229 -0.76929045 -0.58895814
000310 72 02 93 bf e7 7d 34 bf 3d 66 f0 bf 26 87 8e bf
       -1.1485121 -0.7050461 -1.8781201 -1.1134994
000320 4c 2e a7 be 8f 86 c2 bf 4b d3 b8 bd fa b5 05 3d
       -0.3265251 -1.5197314 -0.09024676 0.03264425
000330 1a ae 0f be db bb 40 be 85 b5 1e be 4e 91 c5 bd
       -0.14031258 -0.18821661 -0.15498932 -0.09646855
000340 cf 36 97 bd 20 f0 b9 be 39 5c b2 be e3 f7 aa be
       -0.07383501 -0.36316013 -0.34835985 -0.33392248
000350 ab eb c1 be 8f f8 e1 be 92 87 03 bf 0c 36 01 3d
       -0.37875113 -0.44134948 -0.5137874 0.031545684
000360 36 ae 18 3e d4 de cb bd 0d 45 91 bf d6 4c 98 c0
       0.14910206 -0.099546105 -1.1349198 -4.7593794
000370 24 7c e6 40 ea ce 9c bf 92 d0 47 c0 ee 2c 0e bf
       7.202654 -1.2250645 -3.1221051 -0.5553731
000380 75 79 e6 be b4 a7 10 bf 26 70 88 be 59 b6 0e c0
       -0.4501454 -0.56505895 -0.26648062 -2.2298796
000390 53 c3 2b c0 5e d6 ff bf e0 27 2c c0 bc a5 f4 be
       -2.6837966 -1.9987295 -2.6899338 -0.47782695
0003a0 46 dd 62 c0 00 12 8e bf 0d 29 81 3f c5 fc aa 3f
       -3.5447555 -1.1099243 1.0090653 1.3358389
0003b0 06 e5 2e bf a8 70 cf 3e 19 05 f8 bf 8a 4c 67 bf
       -0.6831821 0.40515637 -1.9376556 -0.90351164
0003c0 9d d5 0e c0 1d 99 a8 bf 1d 2a 07 bf 46 f1 9a be
       -2.231788 -1.3171726 -0.52798635 -0.30262202
0003d0 f1 e0 f1 bf 4a 2b 3e c0 8a a6 4e c0 bb 31 fb bf
       -1.8896772 -2.9713922 -3.2289147 -1.9624552
0003e0 36 7f 37 c0 5a 11 88 bd c5 50 7b 3f 23 34 b7 3f
       -2.8671393 -0.066439345 0.9817012 1.4312786
0003f0 78 1a 21 bf 07 0a ef 3e c0 f5 f9 bf 96 95 81 bf
       -0.62931013 0.46687338 -1.9528122 -1.0123775

0.bias f4 [256]
000000 cd 93 75 be 6b d8 f0 3d 35 33 7c be f6 5d ef be
       -0.23982163 0.117600285 -0.24628909 -0.46751374
000010 4d 1c 2a 3e bd 69 63 bf 0f e8 27 bf ac 54 95 3b
       0.16612358 -0.8883322 -0.6558847 0.004557213
000020 14 25 be bd b9 37 e8 be 60 15 d3 3e 33 2c a2 bd
       -0.09284416 -0.45355013 0.41227245 -0.079185866
000030 ce ec 46 3e a6 9c 53 bf a6 41 95 3d fe 2c 60 bd
       0.19426271 -0.826609 0.07287912 -0.054730408
000040 7a b0 3e bd 9c 09 69 bf 53 27 00 3e 0f f3 e9 3f
       -0.04655502 -0.9103029 0.12515001 1.8277301
000050 9f 90 39 be 2f 67 0d bf 3c ff 67 be 8e 13 00 bf
       -0.18121575 -0.5523557 -0.22655958 -0.5002984
000060 13 11 39 be 9a 9e 98 be e2 b0 0e 3c 94 fb a0 bd
       -0.1807292 -0.29808503 0.008709164 -0.07860485
000070 f7 cf 81 be 4c e2 68 bd 68 8e d9 bd c7 b6 99 be
       -0.25353977 -0.05685644 -0.10622865 -0.3002226
000080 89 d1 04 be 4a 0b de bf b0 02 f2 3c cd 77 04 be
       -0.12970556 -1.7347195 0.029542297 -0.12936325
000090 bf b6 ac bc dc df 7a bf c1 7a b1 bd 55 eb 73 bd
       -0.021083234 -0.9799783 -0.086659916 -0.059550602
0000a0 b4 c4 40 bf 9e 8d 96 40 49 41 9b 3c b9 1f f7 bd
       -0.75300145 4.7047873 0.018952029 -0.120665975
0000b0 13 84 4d bf 0b 1a e0 be ac a7 7d be 0e cb 1e bf
       -0.80279654 -0.4376987 -0.24770993 -0.62028587
0000c0 15 51 17 bf a5 88 04 bf 5f 24 6e be 74 1e 27 bf
       -0.59108096 -0.51771003 -0.23256062 -0.6528084
0000d0 0c 31 81 bf dd 32 50 bf 81 7c fa be 44 ad 49 be
       -1.0093093 -0.8132761 -0.48923114 -0.19695002
0000e0 24 a0 31 be 20 f9 a7 be 1d 23 13 be 7d 44 ca 3e
       -0.17346245 -0.32807255 -0.14368863 0.39505377
0000f0 8a 64 b9 be a5 6e ce bd 4c 03 94 bd 1b 17 1d 3d
       -0.36209518 -0.100796975 -0.07227191 0.038352113
000100 ea 5c b5 3c 61 72 b2 be a2 c6 9b be bc b2 a9 bc
       0.022139031 -0.3485289 -0.30424982 -0.02071511
000110 1e 0a 49 3b cb c4 09 be 39 83 0a 40 e3 75 08 3f
       0.0030676196 -0.13453977 2.1642592 0.5330488
000120 f3 de 82 bd 6f f9 80 3d 21 52 18 bf 16 2f b7 be
       -0.063901804 0.06297576 -0.5950032 -0.3577811
000130 38 1b 3a 3f 56 1a 38 3d de 3e 3d bf bb dd 90 3e
       0.7269778 0.04494699 -0.7392405 0.28294167
000140 63 ef 0e bf bf 15 7e be 9d f1 ef bc 9e 56 6c be
       -0.55834025 -0.24812983 -0.029290015 -0.23079917
000150 f2 f5 ae bc b1 53 f1 3e c9 17 03 bf 3d 2a 05 3f
       -0.02135751 0.47134164 -0.5120817 0.52017576
000160 43 5b a4 bf 90 ce 38 bf 49 99 05 bd 09 d0 a9 bd
       -1.2840351 -0.7219019 -0.032616887 -0.08291633
000170 b2 42 72 be 48 d5 1a bd 2a 44 b5 be fe ca d0 be
       -0.23658255 -0.037801057 -0.35403568 -0.4077987
000180 16 98 a7 bd 10 3f 05 3c ec b3 92 3e a8 4f 75 be
       -0.08183305 0.008132711 0.28652894 -0.23956168
000190 a6 7d 5a bc 81 44 f8 bd 10 50 cf bf c1 a8 c6 be
       -0.013335621 -0.12122441 -1.6196308 -0.38800624
0001a0 2f f0 5d be 54 07 78 3e ab 8f fa bd ad 3f c7 bf
       -0.21673654 0.24221545 -0.12234434 -1.5566307
0001b0 82 b2 bf bd ab e3 88 be 77 20 ce bd ea ff 0c 3e
       -0.093602195 -0.26736197 -0.10064786 0.13769498
0001c0 3b ed 73 be db 68 e4 be 9b a4 b3 be de a9 87 bd
       -0.23820965 -0.44611248 -0.35086522 -0.066241965
0001d0 6b ab 75 be 92 71 8a bf ec ce 8a bd 56 63 e0 bc
       -0.23991172 -1.0815909 -0.067777485 -0.027391117
0001e0 f0 fd ba bd 44 a3 32 3f 1e 69 ad 3e 3e 5a 57 be
       -0.09130466 0.69780374 0.3386926 -0.21030518
0001f0 17 05 d0 bd bd 59 b8 be 8a 2f b1 bd 9e ef 26 3f
       -0.10157221 -0.36005965 -0.086516455 0.65209377
000200 19 50 18 3f 3d eb 75 bf 6e 04 31 bf 4c 24 90 3d
       0.5949722 -0.9606207 -0.69147384 0.07038173
000210 7c 14 d7 bc d7 c6 d3 be 6e 92 11 be 24 74 58 be
       -0.026254885 -0.4136264 -0.14216015 -0.21138054
000220 5c e0 49 be 39 7d ed be 01 b3 a3 bf 45 fa bb bf
       -0.19714493 -0.463846 -1.2789003 -1.4685751
000230 bc 0c 10 bd 37 38 32 bf 89 cf ba bf 60 52 85 bd
       -0.035168394 -0.6961703 -1.4594585 -0.065098524
000240 af 11 09 be 30 42 8a bf 68 dd 61 bf 3f 6a b0 b9
       -0.13385652 -1.0801449 -0.88228464 -0.00033648495
000250 03 33 ad 3c ac 66 3a bf c3 c9 29 be cd 9e a8 bd
       0.021142488 -0.72812915 -0.16580872 -0.08233414
000260 70 4e a0 be 41 5d 7e 3e 86 58 64 bf 87 7d 48 bd
       -0.31309843 0.24840261 -0.89197576 -0.048947837
000270 e7 c3 3d be 56 3b 08 bf 14 2b 89 3e 94 82 e9 bf
       -0.18531762 -0.5321554 0.26790679 -1.8242974
000280 c0 44 8a bd dc b7 6b be 6e d6 af 3e 65 fc 34 be
       -0.06751394 -0.23019356 0.34343284 -0.17674406
000290 64 bd 04 3a 97 34 a0 bf 2a aa b9 bd 44 36 92 3d
       0.0005063622 -1.2516049 -0.09065659 0.071392566
0002a0 20 2a ae bb 8b 5d b4 bb f9 52 ce be 18 9d 41 bf
       -0.0053150803 -0.0055043153 -0.40297678 -0.7563033
0002b0 25 b9 c0 bd 26 a4 8e be 6a 92 af bf 43 a8 16 bf
       -0.094103135 -0.2785961 -1.3716557 -0.58850497
0002c0 2b c4 a3 bd 47 90 7d bc 31 d4 25 3d 25 d0 c2 3f
       -0.079964004 -0.015476293 0.040485565 1.5219771
0002d0 9d d4 ad bd 98 ec 62 bf 85 6b eb bd b5 93 59 3e
       -0.084878184 -0.88642263 -0.11495117 0.21247752
0002e0 2c 4f 83 bb 31 cf 33 bf c3 7b ff be d3 c5 04 bc
       -0.0040072408 -0.70238024 -0.4989911 -0.008103806
0002f0 82 5e 90 3c 0c d2 6a bf 45 d8 3e be 0c ca 39 bd
       0.01762319 -0.91726756 -0.18637188 -0.045358703
000300 5b 6c 50 be 83 c9 b2 3f 7f a3 fd 3c 92 f2 09 bf
       -0.20353834 1.3967746 0.03096175 -0.5388576
000310 a9 95 b7 bf 5b 07 81 bf a5 a9 38 bd ea 1e 00 bc
       -1.4342548 -1.008037 -0.04508366 -0.0078198705
000320 66 2f ec be b7 f7 08 3d 14 2b 29 3e 21 64 6f 3f
       -0.46129912 0.033439364 0.16520339 0.9351216
000330 c1 e7 42 be cc 80 79 3e 2a a4 fe be 1e 9a d9 3f
       -0.1903372 0.24365538 -0.49734622 1.7000158
000340 95 87 36 3f 64 c2 d4 bd 6a 58 3e bf 4d 87 5d bd
       0.7130063 -0.103886396 -0.7435366 -0.05408411
000350 a0 f2 6d 3e cf 32 88 be 87 7b c7 3c 68 8a 98 be
       0.23237085 -0.26601264 0.024350895 -0.29793096
000360 46 01 f9 3c 01 16 54 be 3f 84 3c be 98 67 86 bf
       0.030396115 -0.20711519 -0.18409823 -1.0500364
000370 f1 3d a6 be 13 dd ae bf 4f 6f 0e be ce 23 03 bd
       -0.32469133 -1.3661216 -0.13909648 -0.032016568
000380 cf 8a 50 3c fe 2b ed b8 53 be 64 bd a9 c9 56 bd
       0.012728407 -0.00011309235 -0.05584557 -0.05243841
000390 99 48 b1 bd 17 4f 14 c0 45 cb c1 be 6f 61 c4 be
       -0.08656425 -2.3173273 -0.37850395 -0.38355586
0003a0 05 90 a4 be de d8 a3 bc 6d 76 c0 bd 7d e3 a1 be
       -0.32141128 -0.020000871 -0.09397588 -0.31618872
0003b0 85 1e a4 be 0b 5e 46 3c 7e cd ae be e6 4e 0c bf
       -0.32054535 0.0121073825 -0.34141153 -0.5480789
0003c0 ef 48 31 bd b4 d9 ef bd 29 8b 0c 3d ef 7a 17 bf
       -0.043282446 -0.117114455 0.0343124 -0.59171957
0003d0 fc a3 65 bd fc 31 ba 3f fa 85 e7 3c 1c fe d1 be
       -0.05606459 1.4546504 0.028262127 -0.41014183
0003e0 f2 e5 38 be 20 ed bb be 67 e6 b6 be a0 cc 30 bf
       -0.18056467 -0.3670435 -0.35722658 -0.6906223
0003f0 6a 73 75 3e ef b4 80 bf 03 a4 8b be 62 14 01 bd
       0.23969808 -1.0055217 -0.2727357 -0.03151358

2.weight f4 [64, 256]
000000 80 17 a5 bb 42 92 ba be b9 68 a9 3c cf ee 62 bf
       -0.005038202 -0.3643971 0.020679818 -0.88645643
000010 7c 47 29 bb 42 32 57 bf b9 e7 dc bf 20 12 db 3c
       -0.0025829962 -0.8406106 -1.7258216 0.026742041
000020 a8 04 8d 3f 54 fc 72 be 01 0c 9f 3e 76 00 2d 3d
       1.1017046 -0.23729068 0.31063846 0.042236768
000030 d0 15 9b bd 82 26 09 3f a0 39 94 3b e0 4c fb bc
       -0.0757252 0.53574383 0.004523471 -0.030676305
000040 38 66 ac bc b2 20 09 bd ab 5a 7c bd b0 5c 2e bd
       -0.021044835 -0.033478446 -0.061609905 -0.042568862
000050 95 8a 2a bd 98 91 b3 be 9e 7e e1 3e fc 9f 25 3f
       -0.04163607 -0.35072017 0.44041914 0.6469724
000060 ad 32 bf bf 43 0a 10 3e ac ca 8e 3c 41 29 ba 3c
       -1.493734 0.14066415 0.017430626 0.02272475
000070 96 c8 15 bf 8f 5d 57 3e 72 6a 7c bd cc 70 29 bd
       -0.58509195 0.21031784 -0.06162495 -0.041367337
000080 98 96 64 bc b0 3b 04 3f 69 6f b0 be 8b 75 1a 3f
       -0.01395192 0.51653576 -0.3446 0.60335606
000090 e6 e6 ec 3d 8e a2 51 3c 4a 66 40 3f 14 cd d6 bd
       0.11567478 0.012795104 0.7515608 -0.10488334
0000a0 ae 12 ae 3d fc 35 92 bf 6a 90 35 bd d8 51 76 3d
       0.084996566 -1.1422725 -0.044327177 0.060136646
0000b0 4f 68 4c 3e f1 b0 bc bf 3e 08 83 3f cf 1a b3 be
       0.19961666 -1.4741498 1.023689 -0.3498139
0000c0 d1 ff fb bd c0 3f 8f bf 06 6b 6b bd 9c c9 8f ba
       -0.123046525 -1.119133 -0.057475112 -0.0010970118
0000d0 52 b9 4c 3f cb 9a 15 be d9 83 82 3f 5b c4 03 be
       0.79970276 -0.1460983 1.0196487 -0.12867872
0000e0 62 a5 1c bf 47 a5 09 bd a9 c7 5d 3e 07 bb 24 3f
       -0.61189854 -0.033604886 0.21658196 0.6434788
0000f0 81 76 d8 3f 14 9d db 3a 2a f6 2e 3d 10 3a 22 bd
       1.6911165 0.0016755187 0.04271523 -0.039606154
000100 5c 79 74 bd 20 87 aa bd ab fd 1b bf 43 9b 12 3d
       -0.05968605 -0.08326554 -0.6093394 0.0357926
000110 00 a6 9b 3c d2 22 51 3d 10 17 90 bf 7b 0c 00 be
       0.019000053 0.051058598 -1.1257038 -0.12504761
000120 28 0c 28 3f 2f 14 c5 bf 68 12 72 bb de 92 9e bf
       0.6564355 -1.5396785 -0.003693724 -1.238857
000130 b9 4a 7e 3f e2 81 a0 be 20 50 a6 bd fb 27 f6 3f
       0.9933277 -0.31349093 -0.081207514 1.9230951
000140 c1 a3 40 be ab fb dd 3e 84 1f 9f 3e dc 10 c8 3c
       -0.18812467 0.4335607 0.31078732 0.024422102
000150 a8 c4 78 3c 17 e1 29 bf 1b 1c 8e 3e 6c a6 24 3d
       0.015183605 -0.66359085 0.27755818 0.040197775
000160 0d d0 9f 3f 3e 0f 72 be 51 3a ba bf af c0 91 bf
       1.2485367 -0.23638627 -1.4549047 -1.1386927
000170 05 a9 18 be b0 b4 1e 3c e1 7f 80 3e 98 ac be 3c
       -0.14908226 0.009686634 0.25097564 0.023275658
000180 ce 0f 68 3d 57 50 2d bd 3c 87 a9 3f e2 ce aa bd
       0.056655698 -0.042312946 1.3244395 -0.08340241
000190 48 08 bb bc 97 26 75 bd a9 e8 1b bf 21 38 2f bf
       -0.022831097 -0.059851255 -0.60901886 -0.6844502
0001a0 d3 05 f6 bc 6d 31 40 bf e5 8d 8c bc e1 e9 d7 be
       -0.030032074 -0.7507542 -0.017157504 -0.42170623
0001b0 8e 7b 57 3d 08 34 b7 bf 76 3c 48 bd 76 3c a0 3e
       0.052608065 -1.4312754 -0.048885785 0.31296128
0001c0 99 f1 09 3d 2a 07 7a be 71 20 14 bb 29 5b 04 3d
       0.03367767 -0.24416795 -0.0022602344 0.0323135
0001d0 66 c8 75 bd 35 6e f1 3e a4 61 f0 3c a2 bb 28 bd
       -0.060005568 0.47154394 0.029343434 -0.041194566
0001e0 58 67 d6 be a9 e1 4e bf 5b 9c b8 be 8e 43 67 3f
       -0.4187572 -0.8081308 -0.3605679 0.90337455
0001f0 bc 06 18 3d 12 51 96 3e 32 62 72 3e 35 94 9a be
       0.037115797 0.29358727 0.23670271 -0.30191198
000200 7d db 82 3f 17 48 28 bf 1e ac a7 3e 66 7d 4f bd
       1.0223233 -0.65735 0.32748502 -0.0506567
000210 90 62 58 bd ed 87 5c bf 23 7e a9 bd cc 01 32 be
       -0.05282837 -0.86144906 -0.08276012 -0.17383498
000220 91 aa be bd c8 de a9 bd 2c ed 37 3e 19 a1 26 bf
       -0.09309877 -0.08294445 0.17961568 -0.65089566
000230 16 d5 76 3d 49 cb 04 c0 83 b0 a2 3e e5 13 2a bd
       0.06026181 -2.0749075 0.31775293 -0.04152288
000240 e4 bf bf 3c 0f 4f a7 3d 1f 8f 08 3f 2d f8 00 be
       0.02340693 0.08169376 0.53343385 -0.12594672
000250 b0 d3 89 bc b2 2c 18 bf 30 b7 f5 bc 3c 61 16 3d
       -0.016824573 -0.594432 -0.029994577 0.036713824
000260 81 1d 15 bb 37 5b 02 bd cf 5f 1d bf ec 24 db 3c
       -0.0022753181 -0.03182527 -0.6147432 0.026751004
000270 32 cd 49 bc 0a d9 25 3e 77 94 31 bf 2c 23 2e bf
       -0.012316989 0.16196075 -0.69367164 -0.6802242
000280 fc 24 41 3f 79 4b 3b 3f 5f fc a1 be 14 c8 4e bf
       0.7544706 0.7316204 -0.31637856 -0.80774045
000290 f6 e3 71 3d 97 05 f6 3f ac 3e 00 3d 04 dd d6 3c
       0.05905529 1.9220456 0.03130977 0.026228435
0002a0 f8 12 94 3c 93 68 91 3f bf b4 e4 bf 3f 40 c4 be
       0.018075451 1.1360039 -1.7867659 -0.38330266
0002b0 b2 57 60 3d a1 b1 20 3d d0 10 ba bd f6 a9 e9 3f
       0.054771133 0.0392319 -0.09085238 1.8254993
0002c0 18 9a be bc ac 38 8f bc f5 22 1e 3d 0d 98 87 3d
       -0.023266837 -0.017483078 0.038607556 0.06620798
0002d0 c0 bf 80 bb a9 69 14 3f e0 30 81 bb 3f cd d9 be
       -0.0039291084 0.57973725 -0.003942594 -0.42539403
0002e0 14 30 66 3d 6f 07 6a be 23 63 3d 3f b8 c1 66 bc
       0.056198195 -0.22854398 0.73979396 -0.014084272
0002f0 68 b9 03 3d bc 98 8f be 5c 62 b4 3f 09 59 07 3d
       0.03215924 -0.28046215 1.4092517 0.033043895
000300 21 63 a5 bc 5f 36 43 3e 90 a4 fc bc f6 b5 2d bf
       -0.02018887 0.1906371 -0.030840188 -0.67855775
000310 27 24 0d be 4d e7 4f 3f 85 9d 18 bf b2 5d 35 bd
       -0.13783322 0.8121231 -0.59615356 -0.044278808
000320 62 b1 93 bd 54 9a 6f 3d 8f dc 2b bf 38 55 8d 3f
       -0.072115675 0.05849679 -0.6713342 1.1041632
000330 09 7d ac bc 05 cf a3 3f e5 a0 d1 3e 7c 18 15 bf
       -0.021055715 1.2797552 0.40943065 -0.58240485
000340 d9 1d e3 bf 78 ee 64 3c 1d 1f 45 3f c0 a8 78 bd
       -1.7743484 0.013972871 0.770006 -0.060707808
000350 80 49 48 bd 1b 6e eb 3f 8c 55 23 bc 8e e2 10 3d
       -0.04889822 1.8392977 -0.009969126 0.03537231
000360 da 5b 2c 3e f1 60 57 3e 62 18 1f 3d 30 83 1b bf
       0.16831914 0.21033074 0.038841613 -0.6074705
000370 9f 86 2d be 96 96 ea bf 7d 73 eb 3b 76 3a 38 bd
       -0.16945885 -1.8327205 0.007185398 -0.044977628
000380 80 6a 8f 3b 60 fb 4c 3b 2d 57 bf bc 7a 0a 31 bd
       0.0043767095 0.003127776 -0.023356998 -0.04322288
000390 50 30 08 3c 47 5e 0a 3e d6 da a2 bd a1 14 c7 be
       0.0083123 0.13512526 -0.07951896 -0.38882926
0003a0 47 94 ef bf 90 b1 ed 3c cc 95 9c bc ea 74 52 bf
       -1.8717126 0.029015332 -0.019114397 -0.82209647
0003b0 38 47 ef 3e fa 43 22 bd ce 76 e2 be 8b 0d 01 bf
       0.46734023 -0.03961561 -0.44231266 -0.5041129
0003c0 10 fb bd 3b 40 c3 30 bd ad e8 cd bb 2c dc 63 3f
       0.0057977512 -0.043154955 -0.0062838406 0.8900783
0003d0 04 bb ee 3f c9 e8 7c bc 80 5b 66 3c 03 1e 9a 3e
       1.8650823 -0.01543636 0.014059901 0.30101022
0003e0 4e 17 38 be b3 f1 fc be c5 52 47 3f 92 78 1c 3f
       -0.1797764 -0.49403152 0.7786067 0.61121476
0003f0 f8 50 e5 bd 8a e8 f2 3d ba 7e 25 3f 70 2d b3 3e
       -0.11197084 0.118607596 0.64646494 0.34995604

2.bias f4 [64]
000000 95 9c 12 c0 14 ac a3 40 d6 72 87 c0 65 cf 7a 40
       -2.290807 5.1147556 -4.232768 3.9189084
000010 b7 f4 0f be dc 01 a5 3f 76 18 b5 3f 07 57 cc 3f
       -0.14058195 1.2891192 1.414809 1.5964059
000020 ed 34 19 be 70 7d 4e 40 2e 31 f1 bd 8d 21 76 c0
       -0.14961596 3.226406 -0.117769584 -3.8457978
000030 9f 62 4f be e5 17 31 3f 4f 63 03 3f 97 92 21 3e
       -0.20252465 0.69177085 0.5132341 0.15778576
000040 01 58 c3 bd 09 53 c2 3c cc f8 aa 3f 52 27 67 40
       -0.0953827 0.023721235 1.3357177 3.611775
000050 77 d3 a6 3f c4 1d c1 3e 4b 52 3b c0 a7 92 8a 40
       1.3033284 0.37718022 -2.9268978 4.330402
000060 91 3b 55 40 01 5e 80 be 21 05 a6 be 72 52 eb 3d
       3.3317606 -0.2507172 -0.32425788 0.114903346
000070 00 99 a5 40 8f 51 03 c0 47 83 10 3e 86 b2 93 40
       5.1749268 -2.051853 0.14112578 4.6155424
000080 00 84 6e 40 d5 ba 9b 40 d3 ac f0 bf 9d c0 59 be
       3.7268066 4.8665566 -1.8802742 -0.21264882
000090 94 7c 90 40 8f 00 9f 40 53 fa 22 40 1d 61 cb bd
       4.5152073 4.968818 2.5465286 -0.09930632
0000a0 25 6f 91 3f a4 c6 bb be 95 3e 71 3e d9 ce 8f 40
       1.1362044 -0.36674988 0.2355903 4.494
0000b0 76 9f a7 c0 ba 3d ac bf ef 51 4c be 9f 41 e4 3f
       -5.2382154 -1.3456337 -0.1995313 1.7832526
0000c0 92 a3 d2 c0 45 18 59 40 1d e8 0d 40 34 d3 75 bd
       -6.582467 3.3921063 2.217292 -0.060015872
0000d0 f4 3f 53 c0 ac 4e a7 bf a0 de 12 40 4f 13 82 40
       -3.3007784 -1.3070884 2.294838 4.064857
0000e0 04 b9 5e 3f ed 03 a6 bf d8 a0 cd 40 79 ad 23 40
       0.8700106 -1.2969948 6.4258842 2.557463
0000f0 d3 d3 2b c0 85 19 02 40 c7 1e 98 40 e5 77 14 3f
       -2.6848037 2.0328076 4.753757 0.57995445

4.weight f4 [4, 64]
000000 3b 3e 9f 3f a4 d9 6f 3f fe 92 91 3f a3 1c a9 bf
       1.2440866 0.9369147 1.1372983 -1.3211864
000010 76 79 23 bc 7b 5c bd bf dd 5c bb bf 08 4c 19 3f
       -0.009977689 -1.4793848 -1.4637715 0.5988164
000020 16 56 4d bc 3a 6e 90 bf 2b 68 a4 3c ea 7d 88 3f
       -0.0125327315 -1.1283638 0.020069202 1.0663426
000030 59 9c d8 be f1 15 81 3e 5a 6b 14 3f 04 9f 36 bf
       -0.42306784 0.25212052 0.57976305 -0.7133639
000040 17 84 a1 bd 8c 31 1f 3f fb 15 e7 be ec 0b fe bd
       -0.07886522 0.6218498 -0.45133957 -0.12404618
000050 2a 66 bd bf 1b 43 33 3f 9e 7a ec 3f 97 c5 ea 3d
       -1.4796803 0.7002427 1.847492 0.114634685
000060 16 ff 93 3f 03 2d 00 3d 68 74 5b 3f c4 ba 6a bf
       1.1562221 0.031292927 0.85724497 -0.9169123
000070 24 fa 8e bf 03 9a 62 3f 86 98 1c bf ad 4a 0b c0
       -1.1170087 0.88516253 -0.6117023 -2.1764328
000080 b1 58 9a 3f 1d 71 87 3f e1 50 3a c0 50 70 17 3d
       1.2058316 1.0581394 -2.9111865 0.036972344
000090 6d f3 e3 3e 77 5d bd 3f fa ab eb bd ad 53 94 bd
       0.44521657 1.4794148 -0.11507411 -0.072425224
0000a0 71 aa 00 3f 71 95 e4 be 28 1f 06 c0 d4 e0 9f 3e
       0.5026007 -0.44645265 -2.0956516 0.31226218
0000b0 35 64 8c bf 6c 57 a0 3f 2b b6 b1 3a 82 26 1c 40
       -1.0968081 1.2526679 0.0013558319 2.4398503
0000c0 b9 1f 3a bf 18 03 96 bf 5f 8f 0f 3e d9 41 b4 bc
       -0.72704655 -1.1719694 0.14019535 -0.022004055
0000d0 2b 54 32 3f 56 e7 aa 3f e1 b6 47 3f 75 d3 55 bf
       0.6965968 1.3351848 0.78013426 -0.8352578
0000e0 12 37 5e 3f 70 aa 87 3f 67 91 9e c0 66 d5 ad 3e
       0.8680278 1.0598888 -4.9552493 0.33951873
0000f0 5c 12 ab 3f a5 8f 1f bf af 8c e3 3e 69 a3 af 3f
       1.3364978 -0.6232856 0.4444327 1.3721744
000100 b6 92 9d 3e 19 31 d6 3e 18 da af 3e 93 15 d4 be
       0.30775994 0.41834334 0.3434608 -0.4142271
000110 31 2d f6 bd 01 57 a8 3e ac 36 be 3e 33 fa 59 bf
       -0.12020338 0.3287888 0.37151086 -0.851474
000120 6f f1 73 3d 4a 9e bc 3e 8d 88 e3 bd fd 44 00 3f
       0.05955642 0.36839515 -0.11110029 0.5010527
000130 a3 f9 5d be 6f 45 88 3c 5b 5d 99 be d4 c4 9b 3c
       -0.2167726 0.016634671 -0.29954037 0.019014753
000140 1b 5e 22 bd 07 aa b2 3d 82 54 bd be ef 1b a8 3d
       -0.039640527 0.087238364 -0.36978537 0.08208453
000150 5a 64 c3 bf 35 60 b9 3f d9 95 d4 3e ea 11 23 3f
       -1.5265 1.4482485 0.41520575 0.6369921
000160 d6 ff a0 3f 00 75 c8 3d 3b d2 70 3f 0f 51 61 bf
       1.2578075 0.09787941 0.94070786 -0.8801431
000170 4c 56 30 bf 70 94 c9 3e 3e 8f 01 bf 6f 89 ac be
       -0.6888168 0.3937106 -0.50609195 -0.33698604
000180 7c 26 4a 3f 4e 36 01 bf 1b ed 45 3f ec 8f 2b be
       0.7896497 -0.5047349 0.7731492 -0.1675412
000190 81 3a 8e bd 51 32 22 3f 41 cb 28 3f 47 cb e2 bf
       -0.069447525 0.63358027 0.6593514 -1.7718285
0001a0 4b cc 76 3e ea c8 92 be 44 3b 83 bf 06 03 5f 3e
       0.24101369 -0.2866891 -1.0252461 0.21778497
0001b0 3e 34 9c be 7e 6b 2a 3f b4 57 25 be 81 ca 45 3f
       -0.30508608 0.6657027 -0.16146737 0.7726212
0001c0 48 49 d1 be cf 9e 1a 3f 90 b0 68 3e ef bd 15 3e
       -0.40876222 0.6039857 0.22723603 0.14623235
0001d0 34 69 dc ba 2f 20 0d 3e 8d f7 88 3f 4e 4a 92 be
       -0.0016816021 0.13781808 1.0700547 -0.28572315
0001e0 36 42 68 3f dd 86 a9 3c 69 a8 27 bf cc a5 f9 be
       0.9072603 0.02069419 -0.6549135 -0.48759305
0001f0 3c 7e 96 3f a6 20 8b be a3 3f e0 3e 5e 24 1f 3e
       1.1757274 -0.27173346 0.4379855 0.15541217
000200 73 1a f0 3f d7 b7 21 3f ea 22 6a 3d 0e 77 e1 be
       1.8758072 0.6317114 0.057162203 -0.44036144
000210 f0 3c 2a bd 5f 45 3a be 8d a1 d1 bf 78 be 93 3d
       -0.04156202 -0.18190525 -1.6377426 0.072140634
000220 23 28 6a bb 5d 1e 2e bf 7d 54 00 bc 8d 0b 84 3f
       -0.003572949 -0.6801508 -0.007832644 1.0316025
000230 3e a4 80 3e d0 5a 3c 3f c2 a7 e9 3e 75 c0 18 bf
       0.25125307 0.7357607 0.45635802 -0.59668666
000240 cf 52 70 bc 4b 8d f4 3f 2c 17 08 bf f6 90 cf 3e
       -0.014668181 1.9105619 -0.5316036 0.40540284
000250 34 7e e4 bf 21 4d 83 bf cc eb c2 3f f9 4d 22 3f
       -1.7851014 -1.0257913 1.522821 0.63400227
000260 4f df e8 3f 69 03 90 3c 31 82 33 3f b4 9b da bf
       1.8193148 0.017579751 0.7012053 -1.7078767
000270 01 c4 8b bf fa ed 44 bd 6f 76 b8 bf 9c 9b 16 c0
       -1.0919191 -0.048078515 -1.4411143 -2.3532476
000280 ea 9c e5 3f f3 df 04 c0 c2 bc db bf c3 d6 36 bc
       1.7938511 -2.0761688 -1.7166979 -0.011159602
000290 f6 11 15 3e 8f 2d 89 3f 56 c1 a4 3f 1a bd 3b bf
       0.14557633 1.0717028 1.2871501 -0.7333542
0002a0 e7 6e c6 3e e9 33 73 3b 19 a6 f3 bf 4e 43 05 3f
       0.38756487 0.0037109798 -1.9035064 0.52055824
0002b0 bc c0 33 bf 34 54 bb 3f d0 fe bd bc 77 75 08 40
       -0.70215964 1.4635072 -0.023192793 2.1321695
0002c0 3d bb f2 be ec b1 e1 bc e2 49 3a 3e ff 3f c4 3b
       -0.47408476 -0.02755066 0.18192247 0.0059890742
0002d0 15 8c 08 3f da e5 92 3f 04 b9 ab 3f 12 5e 67 bf
       0.5333875 1.1476395 1.3415837 -0.90377915
0002e0 27 8d e2 3e 7f cd 20 3f 05 03 76 c0 61 33 8d bf
       0.44248316 0.6281356 -3.8439343 -1.1031305
0002f0 11 11 3b 3f a3 81 36 bf bb db 78 3f e4 4b f8 3f
       0.73072916 -0.7129156 0.9721028 1.939816
000300 95 06 f7 3e 10 a6 ff 3e a8 73 58 3f 73 07 18 bf
       0.4824721 0.49931383 0.8455148 -0.59386367
000310 e2 04 95 3d a1 ea f6 be 1c 5e 33 bf 6e 49 7c be
       0.07276322 -0.48225883 -0.70065475 -0.24637386
000320 db c6 0f bc 54 f5 58 be d4 ed 46 bd 4a 64 3c 3f
       -0.008775438 -0.21187335 -0.048566654 0.7359053
000330 bd 66 a8 be 86 7e 72 bf 4f f9 77 3e 81 0d 7c bd
       -0.32890883 -0.9472431 0.24216197 -0.061536316
000340 ae f6 cc 3d 52 7d c9 3f 4f 97 b5 be 46 96 76 bd
       0.10007988 1.574137 -0.35467002 -0.060201906
000350 57 31 8a bf 0b 2e ca 3e c3 e7 5c 3f 64 1a 51 3e
       -1.0796307 0.39488253 0.8629114 0.20420223
000360 58 f4 b2 3f 06 20 1e 3c df cc e7 3e 9c 35 c5 bf
       1.3980818 0.00965119 0.45273492 -1.5406985
000370 bc 9b 3e bf bb a5 50 3e d8 c0 8a bf e4 13 55 bf
       -0.7445638 0.20375721 -1.0840101 -0.83233476
000380 f7 38 89 3f 23 22 a6 be 49 50 50 bf 93 a1 76 3d
       1.0720509 -0.3244792 -0.81372505 0.060212683
000390 8f f5 46 3d fe 42 2e 3f 23 db df be 6c 84 d5 bf
       0.048574027 0.6807097 -0.43721876 -1.6681037
0003a0 50 7a 94 3e 93 a1 24 3e 12 79 84 bf 15 b4 25 3e
       0.28999567 0.1607726 -1.0349448 0.16181977
0003b0 d4 7f da be 8c 28 88 3f 1d 0e d6 bc aa e6 93 3f
       -0.4267565 1.0637374 -0.026129777 1.1554768
0003c0 4c 49 e4 be 9e 42 74 bf 2c 70 ba 3e 32 35 4d bd
       -0.4458717 -0.9541415 0.36413705 -0.05009956
0003d0 5a 9a 03 3f a2 c5 fc 3e 4b b2 17 3f 00 96 b2 be
       0.51407397 0.49369532 0.5925643 -0.34880066
0003e0 6e ce 27 3e 90 1f 7a 3f 7e 85 0d c0 16 ed 1f bf
       0.1638734 0.9770441 -2.2112727 -0.6247114
0003f0 97 11 c0 3f 30 55 05 bf e2 94 3a 3f e9 61 d8 3e
       1.5005368 -0.5208311 0.7288343 0.422622

4.bias f4 [4]
000000 16 76 94 40 63 bb ae c0 83 44 09 40 93 32 9d c0
       4.639415 -5.4603744 2.1448066 -4.9124236
